…
          "base_uri": "https://localhost:8080/"
        },
        "id": "efC574PO3jYe",
        "outputId": "eb36eabe-8909-458f-99c9-3708d72c5267"
      },
      "execution_count": 79,
      "outputs": [
        {
          "output_type": "stream",
          "name": "stdout",
          "text": [
            "Model: \"sequential_21\"\n",
            "_________________________________________________________________\n",
            " Layer (type)                Output Shape              Param #   \n",
            "=================================================================\n",
            " conv2d_23 (Conv2D)          (None, 38, 172, 32)       320       \n",
            "                                                                 \n",
            " max_pooling2d_13 (MaxPooli  (None, 19, 86, 32)        0         \n",
            " ng2D)                                                           \n",
            "                                                                 \n",
            " conv2d_24 (Conv2D)          (None, 17, 84, 64)        18496     \n",
            "                                                                 \n",
            " max_pooling2d_14 (MaxPooli  (None, 8, 42, 64)         0         \n",
            " ng2D)                                                           \n",
            "                                                                 \n",
            " flatten_11 (Flatten)        (None, 21504)             0         \n",
            "                                                                 \n",
            " dense_22 (Dense)            (None, 128)               2752640   \n",
            "                                                                 \n",
            " dropout_28 (Dropout)        (None, 128)               0         \n",
            "                                                                 \n",
            " dense_23 (Dense)            (None, 10)                1290      \n",
            "                                                                 \n",
            "=================================================================\n",
            "Total params: 2772746 (10.58 MB)\n",
            "Trainable params: 2772746 (10.58 MB)\n",
            "Non-trainable params: 0 (0.00 Byte)\n",
            "_________________________________________________________________\n"
…
          "base_uri": "https://localhost:8080/"
        },
        "id": "gdNubklfPvgH",
        "outputId": "7c55ce2a-6da3-4a6b-ece7-1db211cdddda"
      },
      "execution_count": 91,
      "outputs": [
        {
          "output_type": "stream",
          "name": "stdout",
          "text": [
            "Model: \"sequential_25\"\n",
            "_________________________________________________________________\n",
            " Layer (type)                Output Shape              Param #   \n",
            "=================================================================\n",
            " conv2d_32 (Conv2D)          (None, 40, 174, 32)       320       \n",
            "                                                                 \n",
            " batch_normalization_3 (Bat  (None, 40, 174, 32)       128       \n",
            " chNormalization)                                                \n",
            "                                                                 \n",
            " max_pooling2d_22 (MaxPooli  (None, 20, 87, 32)        0         \n",
            " ng2D)                                                           \n",
            "                                                                 \n",
            " conv2d_33 (Conv2D)          (None, 20, 87, 64)        18496     \n",
            "                                                                 \n",
            " batch_normalization_4 (Bat  (None, 20, 87, 64)        256       \n",
            " chNormalization)                                                \n",
            "                                                                 \n",
            " max_pooling2d_23 (MaxPooli  (None, 10, 43, 64)        0         \n",
            " ng2D)                                                           \n",
            "                                                                 \n",
            " conv2d_34 (Conv2D)          (None, 10, 43, 128)       73856     \n",
            "                                                                 \n",
            " batch_normalization_5 (Bat  (None, 10, 43, 128)       512       \n",
            " chNormalization)                                                \n",
            "                                                                 \n",
            " max_pooling2d_24 (MaxPooli  (None, 5, 21, 128)        0         \n",
            " ng2D)                                                           \n",
            "                                                                 \n",
            " flatten_15 (Flatten)        (None, 13440)             0         \n",
            "                                                                 \n",
            " dense_30 (Dense)            (None, 128)               1720448   \n",
            "                                                                 \n",
            " dropout_32 (Dropout)        (None, 128)               0         \n",
            "                                                                 \n",
            " dense_31 (Dense)            (None, 10)                1290      \n",
            "                                                                 \n",
            "=================================================================\n",
            "Total params: 1815306 (6.92 MB)\n",
            "Trainable params: 1814858 (6.92 MB)\n",
            "Non-trainable params: 448 (1.75 KB)\n",
            "_________________________________________________________________\n",
…
